tests/data/fashion_acc=89.ckpt (torch, 903379 bytes, 51 tensors)

parallel.0.weight f4 [16, 1, 5, 5]
000000 65 ab a0 3d 07 e4 02 3e f7 1d 47 3e c3 b3 b5 bc
       0.07845191 0.12782298 0.19445024 -0.022180444
000010 28 15 51 be 0b 9b e0 3c 8c ef a4 3d 1d 56 10 3d
       -0.20418227 0.02741768 0.080535024 0.035238374
000020 bb 43 6d be 91 59 7f 3d 59 75 d0 3b e3 02 10 be
       -0.23170368 0.062341277 0.006361645 -0.14063601
000030 17 fe 70 3d ef 27 b2 be 7c e5 ea bd 6e a8 92 be
       0.05883607 -0.34796092 -0.11469552 -0.28644127
000040 1a 43 e5 bd 88 7f 2a 3d bd f7 d5 3d 41 f0 98 bd
       -0.11194439 0.04162553 0.10447643 -0.074677
000050 0d 56 b4 3e e8 b8 80 3f 84 1e bd bc ef 65 9b be
       0.35221902 1.0056429 -0.02308584 -0.30351207
000060 c5 5c 2d 3e 78 2e 92 bd 94 3c 81 3e 63 52 bd 3e
       0.1692992 -0.071377695 0.2524153 0.3697692
000070 04 30 f6 bd 93 41 88 be 94 97 f4 be 95 63 dc bd
       -0.12020877 -0.2661253 -0.47771895 -0.10761181
000080 b4 8e 44 3e 09 35 90 3e 9d 77 c8 bd cd 47 bc be
       0.19195062 0.28165463 -0.097884394 -0.3677353
000090 f7 35 fd 3d 68 02 0a 3e f4 c0 3a 3e 36 35 8b 3e
       0.123638086 0.1347748 0.18237668 0.27189034
0000a0 fd 6e 42 be 40 00 33 3c 14 53 b5 3d 61 0e a3 3c
       -0.18987651 0.010925353 0.088537365 0.019904317
0000b0 66 56 a1 3b 8d 96 d3 be 01 e5 9e bd 0c 76 59 be
       0.0049236296 -0.413258 -0.07758523 -0.21236438
0000c0 dd b0 a7 be 4f 85 83 be f9 22 18 3e da 2d 4c bc
       -0.32752123 -0.25687644 0.14857091 -0.012462104
0000d0 1c 19 f4 3c e2 a7 b7 3e 3a de 6b bc 10 72 94 3e
       0.02979713 0.35870272 -0.014396245 0.28993273
0000e0 59 92 5e 3e 82 70 17 3e 65 a8 65 3e 40 c7 e7 bc
       0.21735515 0.14789012 0.22427519 -0.028293252
0000f0 0e 3f 39 3a d2 86 58 be 40 d7 e0 3d e6 1f 98 be
       0.0007066586 -0.2114518 0.10978556 -0.29711837
000100 91 12 7b be 70 f3 d8 be 51 87 d3 3d 41 71 ba bd
       -0.24518801 -0.42373228 0.10328544 -0.09103633
000110 b0 4b 4d be 52 fa 6d be 0e d7 f1 be dc 6e c0 be
       -0.20048404 -0.23240021 -0.47234386 -0.3758458
000120 ac 0e 38 be ec 0e 9c be 7d 69 0f 3e 46 ab 70 be
       -0.17974347 -0.30480134 0.14005084 -0.23502836
000130 55 ee 96 3e d2 e3 63 be f3 f2 ad 3d 86 44 6b 3e
       0.29478708 -0.22254875 0.084936045 0.22975358
000140 32 f8 e2 be 4e 11 f0 be 6c 53 1b 3e 9a 3e 48 3e
       -0.44329983 -0.46888202 0.15168542 0.1955513
000150 5c cf 8f 3d 88 ce 22 be 0d 96 16 be e4 4d 5c 3d
       0.070219725 -0.15899098 -0.14705677 0.05378522
000160 91 4c 72 3d c2 e3 dd be 3c d6 17 be 69 23 74 bc
       0.05915505 -0.43337828 -0.14827818 -0.014901021
000170 d7 9a 10 3d 25 4d 55 3e 02 2d ae be 42 49 17 bd
       0.035303917 0.2083021 -0.34018713 -0.0369351
000180 fa 40 ce bc ea 95 6b bc 1e a3 55 3d 3b 77 4b be
       -0.025177468 -0.014379004 0.052157514 -0.19869702
000190 6c 6b e0 bc 38 86 ba 3d 08 f1 8b bc f7 bd 38 be
       -0.027394973 0.091076314 -0.017082706 -0.18041216
0001a0 48 d7 15 bc 2e 73 71 3c f9 61 75 be d4 5b ab bd
       -0.009145565 0.014736934 -0.23963155 -0.08367124
0001b0 27 29 37 bd bb 71 01 bc 82 1d 49 3e b6 d3 53 3e
       -0.04471698 -0.007900651 0.19640163 0.2068623
0001c0 27 49 81 bc b2 47 d9 bc 28 03 7e be d6 25 45 3e
       -0.015781952 -0.026523445 -0.24805892 0.19252715
0001d0 cc 51 6d bd 37 0b de bd 28 c3 ca 3e 88 09 a3 3e
       -0.057939336 -0.10841983 0.39602017 0.3184321
0001e0 e9 7c 00 bf cb f5 e1 be bd a0 18 3e 01 3a fa 3e
       -0.501906 -0.44132838 0.14905067 0.48872378
0001f0 60 d2 93 3e c2 5c 04 be 47 2a c4 3d 6a fb da 3c
       0.2887144 -0.1292601 0.09578376 0.026731212
000200 b5 c8 64 be 9a 9a 41 3b 09 6a 26 3d e6 51 e7 bb
       -0.22342189 0.0029541613 0.040628467 -0.0070593236
000210 97 8b d0 bd 38 76 4c bd fa 72 1e 3e 93 90 71 bd
       -0.10182875 -0.04991743 0.15473548 -0.058975767
000220 47 f3 6e 3e b9 ac 92 3d 54 1d 77 3e a5 3f 7a 3e
       0.2333499 0.071618505 0.24132282 0.24438341
000230 c9 8a be bd bd dd 05 3f 8d 0f 99 3e 81 02 62 be
       -0.09303815 0.5229147 0.29894677 -0.22071268
000240 8a ea 8c be 8f 00 0b 3f 1b fe 26 bd 72 a6 82 be
       -0.2752269 0.5429773 -0.040769678 -0.25517613
000250 4e 78 a3 bd 18 46 86 be 32 55 a0 be e0 40 cb be
       -0.07981931 -0.26225352 -0.31315 -0.39697933
000260 cc 82 db be 75 cc 04 bf 8b f8 39 3d f6 35 db be
       -0.42873228 -0.51874477 0.045403045 -0.42814606
000270 ea a6 ce be 95 f9 3e be 12 06 ce be 79 b4 17 3e
       -0.4036172 -0.18649895 -0.40239006 0.14814939
000280 58 ad 56 be d6 78 b9 bd 98 19 19 be 1e f3 02 bd
       -0.20964563 -0.09056251 -0.1495117 -0.031970136
000290 c1 64 01 be 6e e5 63 bb 63 62 a2 3d 32 66 d2 bc
       -0.12636091 -0.0034774202 0.07928922 -0.025683496
0002a0 a1 ab 69 3e c2 cd ca 3d 4d 17 3b 3e 86 40 99 3d
       0.22819377 0.099025264 0.18270607 0.0748301
0002b0 27 a1 91 bc 73 6d 60 3e af f2 42 3e de 0a 78 be
       -0.017777039 0.21916752 0.19037889 -0.24222896
0002c0 73 b9 3d be 7f 42 25 3e de 0a 1d be 74 e4 aa 3e
       -0.18527775 0.16138647 -0.15336177 0.3337742
0002d0 bc 59 e1 bd 42 5e 4b be ba 41 d2 be 82 be b6 be
       -0.110034436 -0.19860175 -0.4106577 -0.3569222
0002e0 01 8e 9d 3b 71 40 15 3e 17 9a e6 3c ac 1b 89 bc
       0.004808188 0.14575364 0.028149648 -0.016736828
0002f0 d1 88 a3 be 01 66 4c 3e bc 39 d4 3e 52 06 d5 3d
       -0.3194032 0.19960786 0.41450298 0.10401596
000300 f2 94 0d 3e 64 7d b8 be c9 07 a8 bd ff 88 27 3e
       0.1382635 -0.36033165 -0.0820461 0.16360854
000310 31 c1 99 3e 42 43 17 be a4 a1 dd be 1b f1 47 3e
       0.30030206 -0.1477175 -0.43287385 0.19525568
000320 50 35 a2 3d 64 14 68 bd 54 1a cf bd 29 4a ac be
       0.07920325 -0.05666007 -0.101124436 -0.3365033
000330 ae 34 f7 be ba 6b c2 3d ae 78 1c 3d 94 a3 c6 bc
       -0.4828238 0.094932035 0.038201027 -0.024247922
000340 98 bb 1e be 8a 18 24 bf 2b 9a 0e 3d 59 b2 bc 3d
       -0.15501249 -0.64099944 0.034814995 0.092137046
000350 e7 73 6c be c4 ab 78 be 5a d5 a1 be db 56 10 3e
       -0.23091088 -0.24284273 -0.31608087 0.14095633
000360 4f b4 17 3e b3 6e 08 3b f6 eb 80 3c c4 6e a8 be
       0.14814876 0.0020817935 0.015737515 -0.32897007
000370 0b c3 03 3f 23 8c 61 bc 3e 66 b2 bd 80 7a 65 3e
       0.51469487 -0.013766321 -0.087109074 0.22410011
000380 49 b9 31 be e1 6d 69 3e f1 b4 28 be b3 fd 6c be
       -0.17355837 0.22795822 -0.16475274 -0.23143654
000390 93 de 99 be ec 41 b7 3e 49 c2 21 be 43 fd 86 3e
       -0.30052623 0.35792482 -0.1579677 0.26365098
0003a0 f9 18 c3 be 60 13 9e be 90 38 09 3d 38 44 a2 bd
       -0.3810499 -0.30874157 0.033501208 -0.07923168
0003b0 0f 2f 92 be ee 7e ad bc 62 9a 20 3e 9c 28 97 bd
       -0.28551528 -0.021178689 0.15683892 -0.073807925
0003c0 84 f9 50 be ec 88 6d be ee 38 f5 bd bf cb dc 3d
       -0.20407683 -0.23196763 -0.11973749 0.10781049
0003d0 b5 27 41 be 83 2c 8d bd 97 2b 06 bd 03 24 d9 3e
       -0.18862803 -0.068932556 -0.032756414 0.42410287
0003e0 61 bc 7c 3e 16 47 3c 3b fe 24 08 be 1e ec 22 3e
       0.24681236 0.0028728894 -0.13295361 0.15910384
0003f0 0e d2 aa bc ea 4f 0f bd b5 e5 30 3e 2e 1b db 3a
       -0.020852115 -0.03498832 0.17275126 0.0016716474

parallel.1.weight f4 [16]
000000 46 e6 52 3f bd 24 61 3f b6 d4 95 3f bd 0c 82 3f
       0.8238262 0.87946683 1.1705539 1.0160137
000010 f1 20 5b 3f cf bf 26 3f ea 18 82 3f c8 5c 54 3f
       0.8559714 0.65136427 1.0163853 0.8295407
000020 8b 50 83 3f dd 39 70 3f 91 32 72 3f d3 df 50 3f
       1.0258955 0.9383829 0.9460841 0.8159153
000030 61 59 67 3f 20 43 93 3f 9e 15 66 3f 1a 51 8e 3f
       0.90370756 1.150486 0.89876735 1.11185

parallel.1.bias f4 [16]
000000 09 51 1c bf 81 17 b4 be f4 3e a6 be 95 d2 1e bf
       -0.6106115 -0.35174182 -0.32469904 -0.6204007
000010 5e 2e d3 be c2 38 bd be 69 cf d9 be fe 11 d1 be
       -0.41246313 -0.36957365 -0.42541054 -0.4083404
000020 36 2f 52 be 89 58 d6 be a4 d4 93 be d9 d4 f2 be
       -0.20525822 -0.41864422 -0.2887317 -0.47428015
000030 9e 88 82 be 1b 0e fd be 6e 7a 5c be 1c c6 bc be
       -0.25494856 -0.49424824 -0.21531078 -0.36869895

parallel.1.running_mean f4 [16]
000000 f6 6c 20 3e fd c0 bc be 23 1f f7 be 13 a0 fc be
       0.15666565 -0.36865988 -0.48265943 -0.49340877
000010 41 a9 19 3e 7c fa 81 3e fd 58 58 bf 9b 26 94 be
       0.15005971 0.25386417 -0.84510785 -0.28935704
000020 8a b7 29 bf 14 0a bc be 52 c2 78 3f 9b ae 6d bf
       -0.66295683 -0.3672644 0.9717151 -0.9284455
000030 76 53 a9 3e 98 39 a8 3c 22 ac 5c bf af a0 09 bf
       0.33071488 0.020535275 -0.86200154 -0.5376081

parallel.1.running_var f4 [16]
000000 d9 48 f6 3d 3b 1b 3f 3e d9 48 82 3e 52 04 5d 3e
       0.12025613 0.18662731 0.25446203 0.2158368
000010 91 58 b7 3d 4f 9d ed 3d 76 3d 46 3f c5 77 2b 3e
       0.089524396 0.1160227 0.7743753 0.16744907
000020 f0 b0 1e 3f 3c 3d 1b 3e d7 31 2d 3f 9f 96 49 3f
       0.61988735 0.15160078 0.67654175 0.78745455
000030 f0 6f fa 3d a8 01 53 3d d3 5a 2c 3f 84 76 74 3e
       0.12228382 0.05151525 0.67326087 0.23873335

conv1.weight f4 [16, 1, 3, 3]
000000 69 09 d7 be d1 f8 82 3d 4e 93 e5 3e ce 3b 2a bf
       -0.41999367 0.06395114 0.44838947 -0.66497505
000010 dd 3f b2 bc 51 b1 ce 3d b0 22 61 3e 86 6d 16 be
       -0.021758968 0.10092414 0.21985888 -0.14690217
000020 ae 63 98 be 3b 1a 7a be 55 22 07 3e 8a f3 0e be
       -0.2976355 -0.24424069 0.1319669 -0.1396009
000030 66 57 ff 3c c2 b1 9c 3e 88 7a 99 be 5a 39 85 be
       0.031169605 0.30604368 -0.29976296 -0.26020318
000040 de 6c 8a bc d0 bd 44 bf 1a ac b8 3e 9b 2a c7 be
       -0.016897615 -0.7685213 0.36068803 -0.38899693
000050 cd f3 bc be 57 6a 75 be 4d c1 fe be 9e 78 53 3e
       -0.36904755 -0.23966347 -0.49756852 0.2065148
000060 c9 b0 9f 3d e2 e7 19 3d bd cb a0 3e e2 13 aa 3e
       0.07797391 0.037574656 0.3140544 0.33218294
000070 12 0a 4d 3d b5 57 5b 3e 45 e3 0e 3e f2 c0 f6 3e
       0.050058432 0.21420176 0.13953884 0.4819408
000080 d5 3b b2 bd 28 2f e1 3d b2 53 0f 3f 65 4c ac bd
       -0.08702818 0.109953225 0.55987084 -0.084130086
000090 e9 d7 b3 3e cc 83 a4 3d 0b e4 e1 be 3f f9 c5 bd
       0.35125664 0.08032951 -0.44119295 -0.096666805
0000a0 de 82 a1 bd 9a ca 6a 3e 50 c2 d5 3e 96 d2 83 be
       -0.07886289 0.22928849 0.4174981 -0.25746602
0000b0 0a 51 01 be ff 48 04 3f a3 4f 7f 3e 97 88 32 3e
       -0.1262857 0.51673883 0.24932723 0.17434917
0000c0 ec 4b 01 3f bb ef 75 be f2 8c 80 be b3 04 0c 3e
       0.5050647 -0.24017231 -0.25107533 0.13673668
0000d0 26 73 3e bd e5 f9 56 3e d9 ac cb be 5f 70 4d 3e
       -0.046496533 0.20993765 -0.3978031 0.20062397
0000e0 77 fe 3c 3e b4 78 40 3d 6f cf 79 3e 32 6a 85 be
       0.18456446 0.04699011 0.24395536 -0.26057583
0000f0 69 ac c0 3e 1f 26 ba be ac be 70 bc f6 d4 11 3e
       0.3763154 -0.3635721 -0.014693897 0.14241394
000100 67 b3 71 be 3e 8a b2 be 9d c6 26 3d 3a 36 07 3e
       -0.23603593 -0.34871095 0.040716756 0.1320428
000110 72 35 ba 3e d1 c9 32 3e 23 ff a5 3d 61 d3 c4 be
       0.363689 0.174598 0.08105304 -0.3844252
000120 e5 db b5 3a ac 88 5e bd 3f d6 a9 be 44 e5 c8 3e
       0.0013874738 -0.05432956 -0.3317127 0.39237416
000130 ad fa 3e be d9 82 8d be e1 f6 f0 3e 30 a1 3c 3e
       -0.18650313 -0.2763889 0.47063354 0.18420863
000140 c5 c0 4a be 57 e1 c0 be 7a b2 31 3e e1 e2 f5 3c
       -0.19800098 -0.3767192 0.1735324 0.03001541
000150 27 a2 99 3e 08 15 f9 3e ad aa 27 ba cf 4a 37 3e
       0.30006525 0.48648858 -0.0006395977 0.17899631
000160 79 d2 cb be 15 c3 9c 3e 70 e0 01 3e e1 31 b4 be
       -0.39809015 0.30617586 0.12683272 -0.35194305
000170 13 dd ce 3e be 14 7d be 66 80 20 3e 6b e4 c5 be
       0.4040304 -0.24714944 0.1567398 -0.38650832
000180 21 2a a6 3e 7b 24 68 be 00 f3 b7 3e 44 49 1a 3e
       0.32454017 -0.22670166 0.35927582 0.15067011
000190 c8 9f cd be 93 71 f0 be 66 ef 8b 3e 03 40 02 be
       -0.40160966 -0.4696165 0.27331084 -0.12719731
0001a0 25 42 a9 3d af 6b 62 3d 70 9b a1 3e 68 f2 9f 3e
       0.08264569 0.055278476 0.31563902 0.3123963
0001b0 08 15 67 be 8d 77 7b bf 83 ff b4 be 15 e4 ed 3d
       -0.22566617 -0.98229295 -0.3535119 0.11615769
0001c0 09 2c 51 be 6f ec 12 3d d3 30 10 3e 95 49 ac 3d
       -0.20426954 0.035870012 0.14081125 0.08412472
0001d0 76 15 4e 3d 87 3c cc 3e a3 e1 6a 3e 18 ec b5 bd
       0.050313435 0.3988993 0.22937636 -0.08882922
0001e0 5a a9 c2 be 10 2d 09 be 8b c1 90 be 0d 6d 40 be
       -0.3801983 -0.13396096 -0.28272662 -0.187916
0001f0 ef 4c 9d 3e 5e f6 7f 3e 76 ee 73 3e 94 3b 25 3c
       0.30722758 0.24996325 0.23821434 0.010085005
000200 ce 66 74 be 88 34 b2 3e 5e 97 f6 be c7 c0 18 3e
       -0.23867342 0.34805703 -0.4816236 0.14917289
000210 a0 e3 f1 3d 6c f8 a4 be be ae 5a 3e 75 c0 22 be
       0.11810994 -0.3222078 0.21355721 -0.15893729
000220 0e 36 9d be d6 cf d6 3e 11 5b aa 3d cd 47 8d be
       -0.30705303 0.4195544 0.08318151 -0.27593842
000230 69 dc 14 bd e1 27 b4 3e 24 64 9a 3d 72 a9 b6 be
       -0.036343012 0.35186675 0.075386316 -0.35676152

conv1.bias f4 [16]
000000 ed 50 df bd 15 c2 54 3d 30 fd e2 bc 06 28 a1 3c
       -0.10904107 0.051942904 -0.02770862 0.019672405
000010 ea 89 f3 3b 00 62 5b 3e a2 d9 2c bd eb 37 38 be
       0.007432212 0.21424103 -0.04219974 -0.17990081
000020 bc 78 14 be 30 26 13 3e 04 56 1e be 28 f2 ff bd
       -0.14499182 0.14370036 -0.154625 -0.124973595
000030 38 90 1d 3b 65 3a 5f 3e 96 fb e3 3e 2f 4c 1b be
       0.002404226 0.2179962 0.44527882 -0.1516578

conv2.weight f4 [16, 16, 3, 3]
000000 ad 88 41 3e 96 4a a0 bd 60 f3 3a bc ed e0 ef 3a
       0.18899794 -0.07826726 -0.011410564 0.0018301286
000010 00 b2 04 be b3 eb b9 bd 13 f2 b1 bc f0 9d d6 bd
       -0.12958527 -0.09078159 -0.021721875 -0.10479343
000020 3c 0f cf be d1 cf 75 3d c8 0f 87 3c 7b 5b cf bc
       -0.4044131 0.060012642 0.016487017 -0.025312176
000030 32 25 53 bb 14 cb d8 3c 26 5a 4b 3e 3e 30 a2 bd
       -0.0032218215 0.026464023 0.19858608 -0.07919358
000040 2a 8e a2 bd d9 da 7e 3e e8 08 c9 bc 0f ed 1a 3e
       -0.07937272 0.24888171 -0.02454038 0.15129493
000050 50 e9 ee bd b1 f6 1b 3e 57 29 5d bd 07 a8 22 3e
       -0.116655946 0.15230824 -0.053994503 0.1588441
000060 87 2f 99 3e 95 de 99 3d 1f f7 02 bc 66 40 d3 3d
       0.29919073 0.07513157 -0.007993489 0.103150174
000070 53 96 18 bd 56 c1 36 bd cb c9 ec 3d 39 18 0a bd
       -0.037252735 -0.044617973 0.115619265 -0.033714507
000080 97 79 07 be 5c 82 c8 bd 6b e5 2b bc 11 e6 f4 bd
       -0.13229977 -0.09790489 -0.010491709 -0.11957944
000090 07 72 7e bd 0f ec 18 3d 2d ab cb 3b f8 5d 02 be
       -0.062120464 0.037334498 0.006215474 -0.12731159
0000a0 ad 8e 6e be 7a 64 1f be 40 22 d4 3d 8b 1a a8 3e
       -0.23296614 -0.15565673 0.10358095 0.3283275
0000b0 f3 5f 46 be ac 3e fa 3d 05 6c 56 3e ee 4c f0 bc
       -0.19372539 0.12218985 0.20939644 -0.029333558
0000c0 66 b2 8f 3b 18 8c db bb 3a 7a 60 bc 04 6e 40 3c
       0.0043852804 -0.00670005 -0.013701016 0.01174498
0000d0 63 08 9e bd 9e 67 53 be 73 0e 1f bd 95 57 8f be
       -0.077164434 -0.20644996 -0.03883214 -0.27996507
0000e0 d6 bd 49 be c3 83 7d be c6 d4 1f bd 37 eb 42 be
       -0.19701323 -0.24757294 -0.039021276 -0.1903504
0000f0 ae f6 b9 be e7 88 c2 3e c9 41 e9 3e 11 9a 93 be
       -0.36321014 0.37995073 0.45558003 -0.2882848
000100 3b 74 cf bc 8b 2c 42 3e 9a 7b ce 3d 22 21 af bd
       -0.025323978 0.18962304 0.10082169 -0.085512415
000110 b8 83 65 3e 6c 3f 35 3d 05 96 cf 3e b1 80 89 be
       0.22413528 0.044249937 0.40544143 -0.26855996
000120 48 47 b5 3d 75 5e 02 3d e0 71 7a 3d 0c 25 e0 be
       0.088514864 0.031828362 0.061143756 -0.43778265
000130 c4 ab ea bd 23 9b aa bb 82 40 17 3c a3 69 32 3d
       -0.11458543 -0.005206482 0.009231688 0.043557774
000140 f9 2e 19 be 04 cd 2e 3d 79 d0 4d bd c1 0d ba 3d
       -0.14959325 0.042675987 -0.050247643 0.090846546
000150 91 8d 8b 3d 46 80 74 be 0f d1 c0 be e5 e2 0f bf
       0.06814111 -0.23877057 -0.376595 -0.5620559
000160 12 3f 76 be 5a 80 55 3e d2 00 83 be 44 4b 43 be
       -0.24047497 0.20849743 -0.25586563 -0.1907168
000170 39 1a 36 3e 0d 8c 50 3e bf ab 89 be f2 f4 02 3f
       0.1778344 0.20365925 -0.26888844 0.51155007
000180 71 9b ee be 72 f2 25 be 12 dd d0 bd db 69 d2 3d
       -0.46602967 -0.16205767 -0.10198416 0.102740966
000190 e9 6d 7e bd 53 96 87 be 32 81 dd be 39 02 8a be
       -0.062116537 -0.26481876 -0.4326263 -0.2695482
0001a0 96 4e 42 bc 51 4d 0a 3d de 35 51 be d5 b6 17 3d
       -0.011859557 0.03376514 -0.20430705 0.037039597
0001b0 54 53 c6 3d 55 9f 42 3d 36 45 d5 3c dd ed dd 3a
       0.09683862 0.047515232 0.026033979 0.0016931851
0001c0 60 6e 51 be c2 e5 e1 3c da da 82 3d c0 ff 4a be
       -0.20452261 0.027575377 0.06389399 -0.19824123
0001d0 5c 0a a5 be c4 8e 1e be 7c 14 ca bd 2e 91 74 bc
       -0.32234466 -0.15484148 -0.09867188 -0.014927192
0001e0 1e 0d 40 be ad 0d 1d 3e 08 89 0d 3e 1c c1 cf 3e
       -0.18755004 0.15337248 0.13821805 0.40577018
0001f0 d7 cd 22 bf 8b a3 ec be 8e 32 01 3e 86 75 21 bd
       -0.63595337 -0.46218523 0.12616941 -0.03941872
000200 22 a4 56 3d 91 ef be bd b6 f8 6b be e0 97 e9 3c
       0.052402623 -0.093230374 -0.23044094 0.028514802
000210 6e 68 07 be 53 49 bb bd 9f 23 39 3e 5d 38 3a be
       -0.1322343 -0.09144845 0.18079995 -0.18185563
000220 aa a8 4d 3e 91 fa 91 3d 5e 2c 81 be cf 1f 1a be
       0.20083871 0.0712787 -0.25229162 -0.15051197
000230 32 26 25 bd bc 34 8a 3e 19 d2 17 3c b8 2e 4c be
       -0.04031963 0.26993358 0.0092664 -0.19939697
000240 42 4e bf 3e 60 7b 0b be a9 f7 32 3e 39 33 7a 3d
       0.37364393 -0.13621283 0.17477287 0.061084006
000250 1c d5 b6 be 0a 7a a1 be 64 01 a3 3e 55 43 94 bd
       -0.35709465 -0.3153842 0.31836998 -0.07239405
000260 e1 77 17 3d 1a 5d fa bd ca 4c 2e be 0c cb ae be
       0.03697956 -0.12224789 -0.1702148 -0.34139287
000270 5e e7 a3 bd 46 c9 cc bd 94 8b 43 bc 75 db 1e 3e
       -0.08003114 -0.09999327 -0.0119351335 0.15513404
000280 96 53 ec 3e 21 d1 89 3e 71 12 6a be 89 c2 03 be
       0.4615752 0.26917365 -0.22858597 -0.12867178
000290 e7 f1 91 3d 1b 48 89 be 6e 74 1b be 5c 96 f5 bd
       0.07126217 -0.26812825 -0.15181133 -0.119915694
0002a0 39 df f8 bd d1 36 2e be fe 36 6c be 83 72 18 3d
       -0.12151951 -0.17013098 -0.23067853 0.037218582
0002b0 7f b5 27 3e 0d 16 a3 3d 2c f1 b4 3d 12 97 12 3e
       0.16377829 0.0796319 0.088350624 0.14315441
0002c0 a6 af 17 3e d1 e4 ef 3d 9c 99 ee 3d f2 fe d1 3c
       0.14813098 0.11713565 0.116503924 0.025634263
0002d0 dd 3a cc bd 58 f3 1a 3e 28 34 c2 3e 17 5d 70 be
       -0.09972165 0.15131891 0.37930417 -0.23473011
0002e0 0e ce f1 bd 3e 1a 56 3e dc ca 8a be 4b b8 d1 3c
       -0.1180688 0.20908448 -0.27107894 0.025600573
0002f0 78 5b 08 be 0d 0c 74 3e a9 46 4f 3d f1 3c fb 3d
       -0.13316143 0.23832722 0.050604496 0.12267483
000300 8a fb f7 3d 0c 7f dd 3d 14 40 2a 3e cb 28 81 3e
       0.12108524 0.10815248 0.16626006 0.25226435
000310 74 ff 63 3e a3 2f 19 bb 13 a4 e8 bd 58 a2 31 3e
       0.22265416 -0.002337434 -0.1135942 0.17347085
000320 47 36 d9 bd 69 ef 2f bc 7d f6 18 be 43 b1 df be
       -0.10606056 -0.010738232 -0.14937778 -0.43689927
000330 aa 90 98 3d b9 50 98 3e a9 7f 8a bd 91 ad 8f bd
       0.074494675 0.29749086 -0.067626305 -0.07015527
000340 26 a7 0b 3e 5d c4 d4 bd f1 a0 19 3e 7a 00 4d 3d
       0.13637981 -0.10389016 0.150028 0.050049283
000350 2b 87 97 3d 51 1f 1f 3e 5d 8a ef 3c f0 f2 c3 bd
       0.07398828 0.1553929 0.029240781 -0.09567821
000360 02 b5 03 be fa 87 d0 3d be 11 13 3e 4d 13 95 be
       -0.12862018 0.101821855 0.14362237 -0.29116288
000370 6c 4b e2 3d 10 24 16 bb cb 3e b8 be 93 c8 7a bd
       0.11049542 -0.0022909679 -0.35985407 -0.06122644
000380 d5 e7 d0 bd cb 3d b8 3c 69 d8 43 3e 9f 3a 12 3e
       -0.102004685 0.022490403 0.19125523 0.14280175
000390 97 80 ba bd b6 ac e9 3d 2e 43 20 3d 3f d9 b1 3e
       -0.09106558 0.11409895 0.039126568 0.34736058
0003a0 81 ac 65 3e a6 98 03 3e 23 78 ab bd eb 48 bb be
       0.22429086 0.128512 -0.08372524 -0.3657907
0003b0 17 ec c4 bc a7 27 89 3d 86 42 02 3d 3f 89 9c be
       -0.024038358 0.06697016 0.031801723 -0.3057346
0003c0 24 52 a5 bd 6f 46 c6 bd 8f 82 ac 3e f4 86 18 bf
       -0.08072308 -0.09681403 0.33693358 -0.5958092
0003d0 15 e2 0a be 97 14 a6 3e a7 2c 39 be 7f 60 80 be
       -0.13562806 0.32437584 -0.1808344 -0.2507362
0003e0 1f b2 55 3e 78 1a a3 3e 38 86 df bd 76 65 0f 3e
       0.20868729 0.31856132 -0.10914272 0.14003548
0003f0 97 dd a3 be aa d3 8c 3d f7 0e 14 3c 9a e5 ba be
       -0.32004997 0.06876309 0.009036771 -0.36503297

conv2.bias f4 [16]
000000 52 c4 2c 3d 9a e6 cc bd 7c a2 10 3e cc 5f 68 bb
       0.042179413 -0.10004921 0.14124483 -0.003545749
000010 34 72 d0 bc 47 72 78 3d 50 df 60 be cf 18 94 bd
       -0.025445081 0.06065586 -0.21960187 -0.07231294
000020 e0 36 67 3d 32 21 85 3d 2a ae 6e 3e 81 00 f6 3c
       0.056448817 0.06500472 0.23308626 0.030029537
000030 d5 47 3f be 5a 97 8a 3d 8f da c7 3d a8 9a c7 3d
       -0.18679745 0.06767149 0.097584836 0.09746295

bn1.weight f4 [16]
000000 6d 64 c0 3f 41 7e 88 3f d6 55 a9 3f 58 58 76 3e
       1.5030648 1.066353 1.322932 0.24057138
000010 5a 5f 59 3f e2 82 ff 3e 99 89 8c 3f b1 fd 83 3f
       0.8491112 0.49904543 1.0979491 1.0311795
000020 26 f7 59 3f 73 0a 31 3f cb c3 35 3f 82 b0 43 3f
       0.85142744 0.6915657 0.7100188 0.76441205
000030 46 ca bf 3f cd 93 81 3f 54 89 95 3f f5 27 44 3f
       1.4983604 1.012323 1.1682534 0.7662347

bn1.bias f4 [16]
000000 4e ad 9f bd be 80 12 be de e9 a3 be 66 4f c1 bc
       -0.07796727 -0.14306924 -0.32014364 -0.02359743
000010 52 50 16 3c f3 f7 8e bd d7 42 0a 3d cd b9 bf be
       0.009174423 -0.06980886 0.03375515 -0.37446442
000020 4b 93 97 3e de 1d 48 be 16 75 8b be 1c 3b bf 3b
       0.29604563 -0.19542643 -0.27237767 0.005835904
000030 67 10 14 bf 99 bb a4 bd 74 ae f9 bd 4c 61 b3 3d
       -0.5783753 -0.08043594 -0.121914774 0.08758792

bn1.running_mean f4 [16]
000000 8f c3 ad be c9 7d b7 be 2a f5 47 be eb 8a 14 3f
       -0.33938262 -0.35838154 -0.19527116 0.5802447
000010 15 bb 10 3d 0e 7f 1e 3f 9e 99 02 bd 8b b0 49 be
       0.035334665 0.6191262 -0.031884782 -0.19696252
000020 ce 08 15 be 65 c3 be 3e 8a c0 d4 bd a2 f8 72 bd
       -0.1455414 0.3725845 -0.103882864 -0.059319146
000030 74 84 de be fc 23 87 3e 1c 2e e9 3e a7 62 61 be
       -0.4346043 0.2639464 0.4554299 -0.22010289

bn1.running_var f4 [16]
000000 c3 c1 a7 3d 83 b7 36 3e 8a ef 56 3d c8 b2 a5 3e
       0.08191254 0.17843442 0.052474536 0.32362962
000010 ad 40 aa 3c e2 cc 38 3e 35 fe c0 3b 73 04 5f 3c
       0.020782793 0.18046907 0.005889679 0.013611901
000020 4d 63 61 3d 86 cc 74 3d 61 e6 19 3c 7f 0e 00 3d
       0.05502634 0.05976536 0.0093933055 0.031263825
000030 9c 41 71 3e 0f 3f 5a 3c b8 72 9b 3c f7 53 83 3c
       0.23560184 0.013320698 0.0189756 0.016031248

bn2.weight f4 [16]
000000 7d 7d ce 3f 6f 08 b5 3f 95 e6 a2 3f 98 ee 94 3f
       1.6132046 1.4143199 1.2726618 1.1635313
000010 c1 d2 a8 3f 58 a0 b7 3f e3 2f b7 3f c0 be 93 3f
       1.3189317 1.4345808 1.4311489 1.1542587
000020 99 34 81 3f f1 f5 93 3f 65 41 95 3f 3c 72 b3 3f
       1.0094177 1.155943 1.1660582 1.4019237
000030 a0 e9 b9 3f 7a 55 8a 3f a8 25 ae 3f 53 3f a1 3f
       1.4524422 1.0807335 1.3605242 1.259745

bn2.bias f4 [16]
000000 09 51 1c bf 81 17 b4 be f4 3e a6 be 95 d2 1e bf
       -0.6106115 -0.35174182 -0.32469904 -0.6204007
000010 5e 2e d3 be c2 38 bd be 69 cf d9 be fe 11 d1 be
       -0.41246313 -0.36957365 -0.42541054 -0.4083404
000020 36 2f 52 be 89 58 d6 be a4 d4 93 be d9 d4 f2 be
       -0.20525822 -0.41864422 -0.2887317 -0.47428015
000030 9e 88 82 be 1b 0e fd be 6e 7a 5c be 1c c6 bc be
       -0.25494856 -0.49424824 -0.21531078 -0.36869895

bn2.running_mean f4 [16]
000000 6f 57 d5 bf 32 7a eb bf a4 2b b5 bf 00 a0 af 3e
       -1.6667308 -1.8396666 -1.4153943 0.34301758
000010 79 36 e4 bf 5f a3 6c bf 24 59 e5 bf 91 7f ff 3d
       -1.7829124 -0.92436785 -1.7917829 0.12475503
000020 86 5d dc 3e 28 f1 20 be b1 fa 64 be c5 2b 1d bf
       0.43040103 -0.15716994 -0.22361256 -0.6139491
000030 ec 98 51 bf 16 b8 70 3f 3c 86 04 bf a6 9f 42 c0
       -0.81873965 0.9403089 -0.51767325 -3.0409942

bn2.running_var f4 [16]
000000 e5 64 19 40 38 29 8a 40 e3 26 78 40 c8 1c e0 3f
       2.396783 4.3175316 3.8773735 1.7508783
000010 54 65 06 40 8e 68 4b 40 58 18 03 40 64 38 42 40
       2.0999346 3.1782565 2.0483608 3.0346918
000020 2e 5b bf 40 c6 2e 09 40 2e e3 eb 3f ab 50 cf 3f
       5.9798803 2.1434798 1.8428705 1.6196493
000030 ad d5 c1 40 00 b5 de 3f 8e 51 4b 40 1f ce 99 40
       6.0573335 1.7398987 3.1768527 4.8064113

linear1.weight f4 [120, 576]
000000 92 17 9e 3e 3d 27 7f 3c 6b 11 e5 bc 28 ae 88 3d
       0.30877358 0.01557332 -0.027962407 0.06673843
000010 05 1a 79 be 5e c3 9c 3d 57 2c 39 3e 28 83 29 3e
       -0.24326332 0.07654451 0.1808332 0.16553938
000020 ba 5c 74 3e a7 0c a5 3e d9 ad 4d be 8a 66 7e 3d
       0.23863497 0.32236215 -0.20085849 0.062109508
000030 64 53 da 3d a3 13 02 be d7 4b 38 3e 28 58 67 3d
       0.10660437 -0.12702803 0.1799768 0.056480557
000040 61 2c 09 be fc ad 65 3d bc 9f 88 3d 1f 14 83 be
       -0.13395835 0.056074128 0.06671092 -0.2560129
000050 d6 44 31 3e 05 ca 98 bd b3 32 36 3d 4a eb 6b be
       0.17311415 -0.07460407 0.044481944 -0.23038974
000060 7e 8c 97 3e 43 94 87 be 91 8a 15 3e 5f cc 8a bc
       0.29599375 -0.26480302 0.1460364 -0.016943155
000070 0a 84 02 3d c5 3b 31 3e 67 5b 85 3e 48 ed 74 bc
       0.031864204 0.17307957 0.26046297 -0.01494915
000080 9e 62 6a 3d 4d 4e f4 3d fd 31 09 bf d9 e1 fe 3b
       0.057222955 0.11928997 -0.535919 0.007778388
000090 30 cc 15 bd 1b 46 5f 3d e0 1a be be 60 54 0f bf
       -0.03657168 0.054510217 -0.3712988 -0.5598812
0000a0 bd 00 8f be cf 74 0e be 11 11 35 3d a8 10 c3 bd
       -0.2793025 -0.13911746 0.04420573 -0.09524661
0000b0 16 4c e9 be c5 38 5e be 36 33 c0 3d 7f cd 16 be
       -0.4556586 -0.21701343 0.09384768 -0.14726828
0000c0 b3 b8 65 bd 0a 89 8c bd a4 4b 67 3e 90 86 b5 be
       -0.056084346 -0.068620756 0.22587448 -0.35454226
0000d0 a1 fe 02 bf ba f1 58 3e 58 a5 ee bc e3 3f a6 3c
       -0.5116978 0.21185961 -0.029131576 0.020294135
0000e0 07 09 22 bc 59 02 d8 3d 65 6d 1e be ae 85 1f be
       -0.009889848 0.10547323 -0.15471418 -0.15578339
0000f0 eb 63 20 3d 14 f0 03 be 10 be bf bd 17 52 e7 3d
       0.03915779 -0.12884551 -0.093624234 0.11294954
000100 f7 f3 9a bc 12 c3 2e be 16 fd c8 3e f4 b7 02 be
       -0.01891516 -0.17066601 0.3925559 -0.12765485
000110 11 2c 05 3c 3a ef 2c 3e ef ab 55 3e 46 b7 d3 bd
       0.008128182 0.16888133 0.20866369 -0.10337691
000120 0e cf d7 be 12 cc e1 3c dd e1 a2 be 3f 3d 03 bf
       -0.42150158 0.027563129 -0.31812945 -0.5126533
000130 99 11 30 be a3 2d 9c be de 4f 26 3f fa 05 70 3e
       -0.17194213 -0.30503568 0.6496562 0.2343978
000140 77 97 95 be 6c 20 79 be 04 6d 43 bf 31 d2 a0 be
       -0.2921712 -0.24328774 -0.7633822 -0.31410363
000150 91 08 df 3e 46 98 5d 3e f1 02 c8 be bd 70 e7 3d
       0.43561223 0.21640119 -0.39064744 0.113008
000160 79 60 c4 be 0a 30 c7 3d aa 2e 4d 3e 35 49 82 3c
       -0.38354853 0.097259596 0.20037332 0.015904048
000170 9e 58 a8 be 59 87 43 3d ca fb 2b be 31 da 34 3e
       -0.3288011 0.0477365 -0.16795269 0.17661358
000180 f1 4b 11 3e 8c 35 e3 be 02 19 04 be 63 2d c5 3d
       0.14189126 -0.4437679 -0.12900165 0.096277975
000190 42 19 0a bc 26 5f bb 3e 4a 6c 8c 3e eb cc 9f bb
       -0.0084288735 0.3659603 0.27426368 -0.004876723
0001a0 1b 21 45 3e e8 d5 54 3e bb 53 19 3d 23 f4 7b 3e
       0.1925091 0.20784724 0.037433367 0.2460485
0001b0 11 30 69 3e 05 22 1e 3e 81 bf a6 bd bf 54 fc 3d
       0.22772242 0.15442665 -0.08141995 0.123208515
0001c0 c5 18 10 3e 09 77 4f 3e f8 1c a1 3d 88 d5 32 be
       0.14071949 0.20260252 0.078668535 -0.17464268
0001d0 e9 85 71 3e ec df fd 3d fa 1e b3 be d2 30 dc 3e
       0.23586239 0.12396225 -0.3498457 0.43005997
0001e0 c8 73 22 bc e3 0f 41 be d7 37 cf bc 28 5d 1d 3b
       -0.0099153 -0.18853717 -0.025295181 0.0024011824
0001f0 22 aa fe bd ec 8c 21 3e 66 76 ad 3d 4d 75 5f be
       -0.12434794 0.15776414 0.08469848 -0.2182209
000200 3a 23 eb bd 51 cd c2 3e d9 44 1e 3e 18 88 bc 3d
       -0.11481328 0.3804727 0.15455951 0.09205645
000210 ff e4 b7 3e 3f ad 1a bc 45 e3 39 3e d4 59 33 3e
       0.35916898 -0.009440719 0.18153103 0.17514735
000220 9f 42 b2 bd 59 85 38 3e 84 0d 06 3d 29 b8 af be
       -0.08704113 0.18019618 0.032727733 -0.3432019
000230 7f 09 22 3e 33 58 b5 3d 48 2a b4 bd 19 67 48 be
       0.15823935 0.08854713 -0.08797127 -0.19570579
000240 82 a3 f5 bc b7 3e 51 be 1b 81 b9 be eb 20 24 bc
       -0.029985193 -0.2043408 -0.36231312 -0.010017614
000250 02 f5 4e be c1 b2 26 3e ea 8d db bc 15 0c 3b 3e
       -0.2021065 0.16279127 -0.026801068 0.18266328
000260 59 48 57 3e 25 12 19 bd 5e af 11 bd 09 f3 b4 be
       0.21023692 -0.03737082 -0.035567634 -0.3534167
000270 c3 3f 74 3d ca c3 f4 3d 82 2b 86 be d5 98 07 3c
       0.05963112 0.11951406 -0.2620507 0.008276184
000280 4a b3 64 be 0f f5 83 bd e3 1e 8c bd f8 3c 1b be
       -0.22334018 -0.064432256 -0.06841829 -0.15159976
000290 bd 74 f0 bc 2b ce 8a 3e 98 10 7d be d7 19 9c 3e
       -0.02935254 0.2711042 -0.24713361 0.30488464
0002a0 7a 8d 18 3d 4b 71 9c be cc b4 92 bc d1 57 17 3e
       0.037244298 -0.30555186 -0.017908476 0.14779593
0002b0 a8 0e b2 3d b2 b7 11 3e cd ef 1a 3e 87 3c c2 bd
       0.08694202 0.1423023 0.15130539 -0.09484201
0002c0 d1 21 b3 3d f0 97 94 be 48 20 1a 3e 30 f4 d3 3d
       0.08746684 -0.2902217 0.15051377 0.103493094
0002d0 f6 16 f2 3e 8a 8c 2f bd 7a 92 18 be 77 0f 4b bd
       0.47283143 -0.042858638 -0.14899626 -0.049575295
0002e0 72 79 df 3d d1 75 31 be e2 19 dd 3a b5 5a be 3e
       0.10911836 -0.173301 0.0016868676 0.3717858
0002f0 ea 50 84 bd 90 69 8d be 24 5f a5 3d af d2 9a 3e
       -0.06460746 -0.276196 0.08074787 0.30238864
000300 46 53 99 3d 3f d0 63 bd 90 8e 13 3e 58 89 4c 3b
       0.07486586 -0.05561852 0.14409852 0.0031209793
000310 a1 51 14 3e e2 b9 d7 3c 1b 71 0d 3e 1d 3b 38 be
       0.14484264 0.026333753 0.13812678 -0.179913
000320 73 82 dc bc 31 df 0d be 9a 8b 3d bc 83 6d cb 3d
       -0.026917672 -0.13854672 -0.011568928 0.09932997
000330 95 86 32 be 12 20 e5 3d fa a7 81 3e 64 54 89 be
       -0.17434151 0.111877576 0.25323468 -0.26822197
000340 46 21 da bc 2f 05 ee 3d 7b c5 c9 3e df d3 a0 3e
       -0.026627194 0.116220824 0.39408478 0.31411645
000350 40 3b f0 bd 26 a3 26 3e 56 b9 88 3d 8d a5 c2 3e
       -0.11730051 0.16273174 0.06675975 0.3801693
000360 e2 4d 33 be d4 db 22 bc 51 29 43 be 4a 68 39 3e
       -0.17510179 -0.009940106 -0.1905873 0.1810619
000370 66 97 e3 3b 8e 33 b0 3d ec 53 26 3e 15 9b e8 3e
       0.0069455383 0.08603583 0.16242951 0.45430818
000380 0c 01 a1 3e 34 b1 58 3a 39 8f bc 3d 4f 56 3a 3f
       0.3144611 0.00082661514 0.09207005 0.72787946
000390 42 ee 85 be 27 9b 5f 3e 51 f3 2b be b6 36 5d 3e
       -0.2615834 0.2183653 -0.16792037 0.21602902
0003a0 e8 db 5d be 52 db a8 3e a5 95 09 3d 75 5b 9e be
       -0.21665919 0.32979828 0.033589978 -0.3092915
0003b0 8d f4 68 3d dc c9 2a 3e 88 08 1b be fc 0e 47 3e
       0.056873847 0.16678566 -0.15139973 0.1943931
0003c0 61 f4 d1 3e b8 d7 7e be c1 f2 d5 be 24 11 a3 bd
       0.4100676 -0.24886978 -0.4178677 -0.07962254
0003d0 f6 0e 09 bf 08 b6 9a bc 44 d4 83 3e f8 13 d2 3e
       -0.53538454 -0.018885627 0.25747883 0.4103086
0003e0 bf c6 f2 3d b2 6a e7 3e df e9 e6 3e ff 47 2b bd
       0.11854314 0.4519859 0.45100304 -0.041816708
0003f0 a0 e5 fe 3c da 15 c2 3e 65 1b 49 3d 32 f5 8d bd
       0.031115353 0.37907296 0.04909839 -0.06931533

linear1.bias f4 [120]
000000 64 a5 b9 3d dc 84 b7 bd a8 04 25 be 85 4b c1 3c
       0.09064749 -0.08960888 -0.16115057 0.02359558
000010 be 49 b6 bd 29 75 c9 3d 5b ed 0c 3e bf 4c 7e bd
       -0.08900784 0.098368 0.13762419 -0.06208491
000020 49 d3 89 3d 35 0e 93 bc 88 a5 57 bd 44 4e e6 3d
       0.067297526 -0.01795111 -0.052648097 0.11245397
000030 72 70 e0 bd 5f c9 87 be 04 0e f9 bd c4 b1 c1 bd
       -0.10958947 -0.2652082 -0.121608764 -0.09457734
000040 01 c8 7d bd 5f ca 5f 3d 64 ae 34 be 84 d7 8a bd
       -0.061958317 0.054636355 -0.1764465 -0.067793876
000050 4e 30 73 bc 39 ba af bd b3 1e 47 bd db a4 9a bc
       -0.01484306 -0.08580441 -0.04861326 -0.018877437
000060 57 56 92 bd f0 72 a3 3c cd 7e de bd e6 46 15 bd
       -0.07145374 0.019952267 -0.10864029 -0.036444567
000070 31 dd 31 bc f4 25 22 ba b9 40 1c 3d 61 39 91 bd
       -0.010855959 -0.0006185465 0.03814766 -0.07091022
000080 4d 46 13 3e bc 39 fe ba 6e a7 23 3e a8 62 03 be
       0.14382286 -0.0019395868 0.15981838 -0.12830603
000090 ae ee 9e 3c ec c4 b1 bd 4d af b9 bd d4 76 16 be
       0.01940092 -0.08680138 -0.09066639 -0.14693767
0000a0 03 f6 04 be 35 47 0a 3e df a8 36 bd d2 98 1f bd
       -0.12984471 0.13503726 -0.04459464 -0.0389641
0000b0 7d d1 ab bd 12 f7 5a be b3 6e a1 bd c7 49 d0 3d
       -0.08389566 -0.21383312 -0.07882442 0.10170322
0000c0 5d 65 8a 3d 1d de ed 3d 17 f8 f9 3c 82 74 91 bd
       0.06757615 0.1161463 0.030513806 -0.071023
0000d0 f8 21 3d 3d 71 d5 33 3d d9 e6 f5 3d da fa e5 bd
       0.046174973 0.043904725 0.12006921 -0.11229487
0000e0 38 7c f2 bc 53 fc da 3d 93 a5 d2 bb d2 4b 12 be
       -0.029600248 0.10692658 -0.0064284294 -0.14286736
0000f0 25 af a8 bc cc 99 5e bc 12 a3 b4 bd 0b 3f c0 bd
       -0.020591328 -0.013586473 -0.08820166 -0.093870245
000100 5f 74 cd 3d 52 48 43 be 0c 11 9b bd f8 05 61 bd
       0.10031962 -0.19070557 -0.07571611 -0.054937333
000110 1c 7c 29 be 96 8e 1e bd 0a 68 23 3c 94 4b de bc
       -0.1655125 -0.0387102 0.009973535 -0.027135648
000120 30 c1 e7 3b e5 44 34 3c f0 09 1c bd 85 6e ea 3d
       0.0070725903 0.011002754 -0.038095415 0.11446861
000130 76 45 59 3d b9 c1 3c bd b7 82 0d 3e fa 06 0d be
       0.05304476 -0.046083186 0.13819395 -0.13772193
000140 74 43 2a bd f0 2b 98 bd 20 f8 65 3e af 20 df bd
       -0.041568235 -0.074302554 0.22457933 -0.10894906
000150 9c 39 81 bd cb a2 40 be 77 00 9b 3d 16 b2 c0 3d
       -0.06309816 -0.188121 0.07568448 0.09408967
000160 d7 b3 34 be 85 15 83 bd bd 46 0f bd f8 02 58 3d
       -0.17646728 -0.06400589 -0.03497957 0.052737206
000170 77 2d 01 3e 5e 9e 90 bd 43 24 fa bb 7e 10 d4 bd
       0.12615 -0.07061456 -0.0076337173 -0.10354708
000180 88 3c 11 be e4 f6 8b bc 6b 64 22 be 44 17 ee 3d
       -0.14183247 -0.0170855 -0.15858619 0.11625531
000190 96 6c d0 bd 5e a6 81 bc d3 d1 ad 3e 1c b8 0d bc
       -0.10176961 -0.0158264 0.33949146 -0.008649852
0001a0 31 52 1d 3d 3c 48 20 3b 48 13 29 bc 17 3f bf bc
       0.038408462 0.0024457118 -0.010319538 -0.023345513
0001b0 13 4e 4e 3d 67 fe 1e bd 65 48 07 3d c0 1b 99 bc
       0.050367426 -0.038816836 0.033028025 -0.01868999
0001c0 48 fd ed bc 15 b3 e5 3d d1 8a 72 3d cc 7d fa 3c
       -0.029051438 0.11215798 0.059214417 0.030577563
0001d0 1f 94 3d bd ae 8a de bd 6e 1f b6 bd 7f 3e 18 bd
       -0.046283837 -0.10866295 -0.088927135 -0.037168976

linear2.weight f4 [10, 120]
000000 d8 f0 07 be 3f c8 dd 3d 8b 4f a6 bd af 0b 5f 3d
       -0.13275468 0.108292095 -0.0812064 0.0544545
000010 ea 58 a8 3e 0b 4b 47 3e 60 a5 c0 3e b6 e8 b8 3d
       0.32880336 0.1946222 0.3762617 0.09028761
000020 d1 16 83 3e e4 7a cf 3c 55 c4 eb 3d 55 79 0f bf
       0.25603345 0.025327154 0.11512057 -0.56044513
000030 74 3e 92 3d 07 97 09 bf 71 5e 27 bc f9 54 64 3e
       0.07140818 -0.53746074 -0.010215388 0.2229804
000040 f1 52 2b 3d 43 6a 1a bd 33 cc b5 bc ed 50 01 bf
       0.041827146 -0.037698995 -0.022192096 -0.5051411
000050 c1 25 f3 3c 33 25 b3 3d fb 70 e4 be d5 a2 fd 3c
       0.029681088 0.087473296 -0.44617447 0.030961433
000060 c6 4d 20 3e 01 ce ff bc f3 f2 aa bd aa 93 b2 bc
       0.15654668 -0.03122616 -0.0834712 -0.021798927
000070 90 11 24 bf ed 3f 1c 3e 77 dd 32 3e 83 9c f4 3d
       -0.640893 0.15258761 0.17467295 0.11943915
000080 a7 dd 36 3f c8 d4 09 bf 7e e7 ba 3d 8b f5 c5 be
       0.71431965 -0.53840303 0.09126185 -0.38663897
000090 3c 68 96 bd bc f6 be be fd 98 1e bf ab 0c f5 3d
       -0.073441 -0.37297618 -0.6195219 0.11965307
0000a0 d4 e2 4b 3c 73 0f 25 3e b9 1a 8f 3d 37 10 97 be
       0.012444217 0.16119175 0.06987519 -0.29504558
0000b0 74 77 24 3e f3 3a d6 3e 68 62 90 bd a7 c9 6c bd
       0.16061193 0.4184185 -0.070500195 -0.0578095
0000c0 5e 90 86 3e 3a ec cf 3e 96 d4 a9 3e 65 04 65 be
       0.26282018 0.40609914 0.33170003 -0.22364958
0000d0 64 71 5e be b0 9e 30 3e 57 05 50 be 63 0b 04 bd
       -0.21722943 0.17248034 -0.20314537 -0.03223742
0000e0 79 36 05 bf 54 f6 bd 3d 5c 14 16 3e 73 69 42 3d
       -0.52036244 0.09275499 0.14656204 0.047463845
0000f0 fa cb 84 bd cd 71 3f bf 65 da 94 b9 5c 8e 18 bf
       -0.06484218 -0.7478302 -0.00028391476 -0.59592223
000100 8f 00 9d 3e dc b9 a8 3d 7a d1 ee be 48 e3 1a bf
       0.3066449 0.08238575 -0.46644193 -0.60503054
000110 fb ca 77 3e 21 d3 09 bd 9c d6 a2 be d9 bb 71 3d
       0.24198525 -0.033648614 -0.3180436 0.059017036
000120 aa 95 e3 be 34 c4 4c bd 09 7b c4 3e 2e 4a cc be
       -0.44450122 -0.0499918 0.38375118 -0.39900345
000130 d5 81 df 3d 63 7e 92 3e 36 7d 42 bf 80 38 6a 3b
       0.10913435 0.2861205 -0.75972307 0.0035739243
000140 34 c2 22 3d 82 b9 37 3e 75 72 71 3e 33 c0 83 3e
       0.039735988 0.1794186 0.23578818 0.25732574
000150 19 b0 35 bf 24 8f cd bd db 69 98 be 38 79 71 3e
       -0.7097183 -0.100370675 -0.2976826 0.23581398
000160 eb 5d 06 3e 6d c3 94 3b 46 89 05 be 6f 38 ea 3d
       0.13121764 0.004539898 -0.13040647 0.11436545
000170 c9 eb 0f 3e da d5 06 3d bc 87 06 3d 91 b8 a0 3e
       0.14054789 0.03291879 0.03284429 0.31390813
000180 51 94 02 3e 6d bc d2 bb f6 7d 27 be 17 28 ff bc
       0.1275189 -0.0064311535 -0.16356644 -0.031147046
000190 4a 37 a2 3e c4 e2 b6 3d 62 04 fb bc 81 36 6e bb
       0.31682807 0.08929971 -0.030641738 -0.0036348405
0001a0 e0 8f 1f 3e 3c c4 2c bd bb 2a ea 3a 1a 04 b9 3e
       0.15582228 -0.04217933 0.0017865518 0.36135942
0001b0 cd 7f c3 3d b4 22 5e 3d 9f 87 9f be 9e 3f fb bb
       0.095458604 0.054232314 -0.31158158 -0.007667496
0001c0 98 76 8f bd 8d 82 83 be 9b 25 99 be 3b 50 09 bf
       -0.07005042 -0.2568554 -0.29911503 -0.53638047
0001d0 1a ba 77 bf df d6 2a bd 18 31 e6 3b 34 49 9e bb
       -0.96768343 -0.041708823 0.0070248954 -0.004830504
0001e0 c5 6d 83 be 51 bd 76 3e ba 8a 2e 3e dd 5a a8 3c
       -0.25669685 0.24095656 0.17045107 0.02055114
0001f0 eb 44 f0 be 98 0d fe be e4 b9 a4 3e 0c 52 fc bd
       -0.4692758 -0.49619746 0.32173073 -0.12320337
000200 a6 93 b9 bd 9c 95 d5 3d 8d e6 ed be 94 4b 41 bd
       -0.09061365 0.10428926 -0.4646496 -0.047191218
000210 a6 3d 93 3c 05 90 83 3e c9 cd 9f bd 94 76 91 bf
       0.017973732 0.25695816 -0.07802922 -1.1364312
000220 58 e8 d4 be 30 dc 80 3e d8 29 ad be 15 44 4e 3e
       -0.41583514 0.2516799 -0.33820987 0.20143159
000230 1b f6 b3 bc 64 12 28 3f c2 38 aa 3e 85 56 4f 3e
       -0.021967938 0.6565306 0.33246428 0.20247848
000240 a5 55 4a be 2e 38 32 3e ed 78 65 be 7d 27 cc 3c
       -0.19759233 0.17404243 -0.22409411 0.024921173
000250 7b 69 19 bd 95 a4 18 bf 66 a7 64 bd 40 30 ad bc
       -0.03745411 -0.5962613 -0.055823706 -0.021141171
000260 81 c6 47 be 42 45 27 3e 93 65 8f be b6 f7 4d be
       -0.19509317 0.16335014 -0.28007182 -0.20114025
000270 df 24 36 be d7 ce 89 be 5a 85 a0 3b a3 76 69 bf
       -0.17787503 -0.2691562 0.0048987092 -0.9119665
000280 08 0d 73 bf c2 f5 b3 be f5 a6 30 bd ae 7c 8b 3d
       -0.9494176 -0.35148436 -0.043127973 0.0681089
000290 64 17 3c bf 5f 6c d8 be f8 2c c4 3d 5c 51 c3 be
       -0.7347319 -0.4227018 0.095788896 -0.3814801
0002a0 73 93 02 3e 97 39 75 3e 32 7a da be 7c 43 65 be
       0.1275156 0.2394775 -0.42671353 -0.22389024
0002b0 4c 97 80 bd 6f a8 11 be cf 18 6d bf bf 96 b1 be
       -0.062788576 -0.14224409 -0.9261598 -0.34685323
0002c0 76 c5 53 3d 40 08 9c be 82 58 30 be 65 53 c8 3d
       0.051701985 -0.30475044 -0.17221263 0.09781531
0002d0 09 9d a4 3e bd 36 1d be 30 14 a6 3c 2e 97 2a bf
       0.32151058 -0.15352912 0.020273298 -0.6663693
0002e0 bc c6 3c be e3 20 87 3d 2a 7a 09 3e 7e 19 11 3e
       -0.18435186 0.065980695 0.13425508 0.14169881
0002f0 22 45 93 be 36 ef 44 bd 99 1f 58 be 42 4b 29 3d
       -0.28763682 -0.04807969 -0.21105804 0.041331537
000300 44 28 f7 be 68 aa 78 3d 03 ab 1c 3e 14 34 36 bf
       -0.48272908 0.060709387 0.15299611 -0.71173215
000310 3e 96 f3 be ec ec ac 3d be 62 4c 3f d0 de cf be
       -0.47575563 0.08443627 0.7983817 -0.4059968
000320 1a 15 57 3d 6c e8 dd 3d f7 8a 1d 3e be 87 7e be
       0.05251036 0.108353466 0.15385042 -0.24856469
000330 37 c0 48 3e 71 6f eb bc 82 b0 77 3d 63 03 51 bf
       0.19604574 -0.028739663 0.060471065 -0.8164579
000340 8c 3c d8 be b5 0e f6 bd dc c2 9a 3e bd af d0 3d
       -0.42233694 -0.12014524 0.3022679 0.101897694
000350 41 e7 16 bf 16 6c 05 bd d2 dc 98 3d 43 4e 8f be
       -0.58946615 -0.032573782 0.07463993 -0.27989396
000360 06 e0 2c bf fd 16 0b be 2a 40 f8 be f8 b0 82 3d
       -0.6752933 -0.13582988 -0.48486453 0.0638141
000370 c7 c5 e8 3b 12 6c 5a bd 59 5c 42 be 63 c3 d9 bc
       0.007103655 -0.05332572 -0.1898054 -0.026582425
000380 d0 94 75 be 82 0b 89 bd 48 6a 72 bd 38 02 00 bf
       -0.23982549 -0.06691648 -0.05918339 -0.50003386
000390 83 07 ed 3e 0f c9 56 3d 34 59 1b bf f2 98 42 bd
       0.46294793 0.05243784 -0.6068299 -0.04750914
0003a0 5d cb bb be 4d 93 cc 3d a1 e3 55 3f cb 9b c6 be
       -0.3667859 0.09989033 0.8355046 -0.38790736
0003b0 9d 37 86 be 99 19 e5 3e 7d 1d 19 3d 26 80 17 3c
       -0.26214305 0.44746092 0.037381638 0.009246862
0003c0 a4 bf 1f be fd 17 72 3e 92 15 5a 3d 94 42 2f bc
       -0.15600449 0.23641963 0.053243227 -0.010697026
0003d0 73 f0 a1 be 78 b3 3e bf 32 a3 84 be a0 56 da 3d
       -0.3162876 -0.744926 -0.25905758 0.10661054
0003e0 e4 8f df 3e 24 b8 15 bf 3c 0f 3d 3e bf 51 f2 3d
       0.43664467 -0.584841 0.18462843 0.11831998
0003f0 b9 f7 40 3c cd ff 7f bb 0a c2 3b 3e 97 aa 11 3e
       0.011777812 -0.0039062381 0.18335739 0.14225231

linear2.bias f4 [10]
000000 34 34 6e bd 42 46 5a be 54 ca de bc 42 9d 8e 3d
       -0.058155254 -0.21315864 -0.027196087 0.06963588
000010 dc ac f6 3d 3e d6 6c be 38 03 52 3e a4 aa 28 3e
       0.12044689 -0.23128602 0.2050904 0.16471344
000020 da 7b 58 bd b8 f8 ef bd
       -0.05285249 -0.11717361

exp_avg f4 [16, 1, 5, 5]
000000 ea 72 5f 3a 3a 87 88 b9 88 61 bc 39 40 31 42 3b
       0.00085238984 -0.00026040693 0.0003593082 0.0029631406
000010 28 f9 0f 3a 98 dd c7 39 00 27 d3 36 44 49 19 b9
       0.0005492144 0.00038121338 6.29283e-06 -0.0001461851
000020 39 b9 53 3b c8 4a 9d ba 94 3d 97 3a f6 eb 0e 3b
       0.0032306446 -0.0012000436 0.0011538737 0.0021808124
000030 92 1b 11 3b 9c 9e 27 3b c5 de d5 3a c3 ba 3e 3b
       0.0022141677 0.0025576716 0.0016317001 0.0029103018
000040 7b 74 a7 3b 97 e3 ad 3a 0e 89 b5 3a a0 ff bf b8
       0.005110321 0.001326668 0.001385005 -9.1552036e-05
000050 1e 8a 19 3b d0 d4 30 3b 88 52 f2 3a 98 f8 b8 3a
       0.0023428272 0.0026982315 0.0018487731 0.0014112173
000060 e0 9f ba b8 d7 61 af 3b 94 a5 44 3c 4e ea 00 3c
       -8.89895e-05 0.0053522396 0.0120023675 0.007868363
000070 44 a6 6c 3c 94 23 63 3c 48 03 55 3a e0 55 06 3c
       0.014443938 0.013863463 0.0008125794 0.008199185
000080 b2 0d c6 3b 53 11 03 3c 3a ae 90 3b da ac fd 3b
       0.006044113 0.007999736 0.0044153007 0.007741553
000090 d6 97 7f 3c d0 f0 34 3c 40 82 0b 3c 75 49 11 3c
       0.015600165 0.011043742 0.008514941 0.008867611
0000a0 50 95 6d 3b 18 c6 fd 3b 14 eb 1a 3c 16 0b 4a 3c
       0.0036252327 0.007744562 0.009455461 0.012331745
0000b0 9c 9a 28 3c a3 08 96 3b 23 e3 cf 3b ca 2f da 3b
       0.010290768 0.0045786663 0.0063442155 0.006658529
0000c0 5d 71 bc 3b 1e e7 d1 3b 1e 9c 82 3c 10 32 2d 3c
       0.0057508186 0.006405725 0.015943583 0.010571018
0000d0 f2 d1 66 3c a7 7f cb 3b 33 96 68 3c 09 23 05 3c
       0.014088141 0.0062102857 0.0141959665 0.008126029
0000e0 ba 0e 0c 3c db dc 30 3c af ec fa 3b aa 6a 80 3c
       0.008548433 0.010794844 0.0076576094 0.015675861
0000f0 27 d1 44 3c fb 74 88 3c 3b 4e 27 3c fe c5 25 3c
       0.012012756 0.016657343 0.010211523 0.010118006
000100 95 5e 69 3c 14 4e 9a 3b 7c d8 33 3c 82 b4 ea 3b
       0.0142437415 0.0047090147 0.010976907 0.0071626315
000110 ed e8 56 3b a7 4f c5 3b 23 3d 80 ba 60 aa f2 39
       0.0032792643 0.006021458 -0.0009783845 0.00046284776
000120 a8 86 b5 3a 50 d3 d6 ba c1 c0 0d bb e8 8c 82 bb
       0.0013849335 -0.001638988 -0.0021629783 -0.0039840825
000130 8a 8e 2b 3b b8 8a 13 3b 96 bb d2 3b b4 7a 23 3c
       0.002617749 0.0022513103 0.0064310534 0.009977985
000140 3b 82 07 bb 62 59 30 3b 1d b8 dc 3b ec 65 52 3c
       -0.0020676989 0.0026908745 0.006735815 0.012841683
000150 09 33 80 3c 25 ad e8 ba e2 55 a5 3a c8 b4 c7 3b
       0.015649335 -0.0017751796 0.0012614096 0.006094549
000160 a9 f9 4a 3c 4c e1 68 3c 56 2a 7f bb bc c0 be 39
       0.012388625 0.014213871 -0.0038935146 0.00036383222
000170 92 d0 03 3c 72 ee 0d 3c c2 9a 58 3c 99 bd 3a bb
       0.0080453325 0.008662807 0.013220491 -0.0028494357
000180 9e e8 74 3b 90 fa fa 3b 60 86 22 3c df 1f 4f 3c
       0.0037370096 0.007659264 0.009919733 0.012641876
000190 2e 7b 77 3b 87 55 db ba fe 5f 24 3c 69 fa 8b 3c
       0.003776263 -0.0016733863 0.010032652 0.017087178
0001a0 d3 d0 bd 3c 40 8c f7 bb 59 15 59 bc 0c bd b6 3a
       0.023170864 -0.007554561 -0.013249719 0.0013941838
0001b0 1e 64 81 3b c2 bd df 3b 14 6e 54 bc d6 0f 5f bc
       0.0039487025 0.006828041 -0.012965698 -0.013614615
0001c0 a6 c8 85 bb 51 fc b3 3a 0a 3a 1b 3c 14 4d 99 bc
       -0.004082757 0.0013731812 0.009474287 -0.018713512
0001d0 20 b8 a4 bc d6 1a 2c bc d3 52 13 bb 77 a4 09 3b
       -0.020107329 -0.010504445 -0.0022479787 0.002100257
0001e0 ce f8 6d bc 94 47 75 bc 21 de 6b bc ba 01 3a bb
       -0.014524652 -0.014970679 -0.014396221 -0.0028382377
0001f0 14 49 85 bb 00 44 2f 39 d0 80 4e 39 50 ee 27 bb
       -0.0040675495 0.00016714633 0.00019693677 -0.0025624223
000200 dd 02 0c bb 12 c3 d8 bb d6 95 7a 3a d4 ad 14 3b
       -0.0021364011 -0.006615051 0.00095590705 0.0022686617
000210 44 de ea 3a c0 0d 68 ba d1 9b 86 bb ea 2b 86 bb
       0.0017919024 -0.00088521466 -0.00410793 -0.0040945904
000220 18 fd a2 3a c3 d6 b9 3a 20 fc 58 bb fa e4 42 ba
       0.0012435047 0.0014178384 -0.0033109263 -0.0007434633
000230 f0 db cc 3a b4 ff 67 3b 65 79 c4 3a 8b 25 d0 ba
       0.0015629511 0.0035400214 0.0014989792 -0.0015880329
000240 50 e7 4f ba f0 49 11 3c 0c 2e 63 3c 08 cb 47 3c
       -0.00079308916 0.008867726 0.013865959 0.0121944025
000250 7a e6 13 3c 96 c4 2e 3c 78 47 fa 3a a8 65 f0 3a
       0.009027118 0.010666987 0.0019094786 0.0018340843
000260 ba 30 02 b9 37 56 0e 3a c2 a7 8f 3b aa c7 c6 3a
       -0.00012415918 0.0005429717 0.004384012 0.0015165706
000270 19 fc 87 b9 8a e8 93 3a fe 79 d1 3a 4d 0c b0 3b
       -0.00025937034 0.0011284512 0.0015981791 0.00537256
000280 da 0e 9f b8 0b 83 a3 39 a8 b2 ed b7 14 d7 88 38
       -7.584477e-05 0.00031187417 -2.8335795e-05 6.525047e-05
000290 18 ca 6c 3b d2 08 ba 3a 52 e6 cc ba 3a 99 e0 ba
       0.00361312 0.0014193302 -0.0015632606 -0.0017135509
0002a0 3a d9 8a 3a 72 09 a9 3b ff ea e0 39 f0 39 0a ba
       0.0010593303 0.0051585967 0.00042899695 -0.00052729156
0002b0 3e 1f 6e b9 cf b9 27 3b cc 2a ab 3b 9d bb 03 3c
       -0.00022709087 0.0025592928 0.0052236076 0.008040336
0002c0 2c 32 ed 3b 06 2f da 3b 10 ac 57 3b 4e 46 d2 3b
       0.007238647 0.0066584377 0.0032908954 0.0064170724
0002d0 2c 0c 5f 3c e9 53 53 3c bc c6 52 3c 87 37 08 3c
       0.013613742 0.012898424 0.012864765 0.00831402
0002e0 b6 95 2e 3c 6a fc 3b 3c 87 88 22 3c 9e 88 6e 3c
       0.010655811 0.011473754 0.009920246 0.014558939
0002f0 f9 4f f6 3b 62 3a 2f 3c da 19 78 3c 60 ab 23 3c
       0.0075168577 0.010695072 0.015142882 0.009989589
000300 cc 1c 53 3c de 59 6e 3b 36 7b 17 3c 28 01 a7 3c
       0.012885284 0.0036369483 0.009245684 0.020386294
000310 2c 81 6c 3c a1 29 81 3c 82 74 1c 3c 40 17 58 3c
       0.014435094 0.01576692 0.009549262 0.013189137
000320 71 08 14 bb d0 e7 8d 38 f9 7e 08 3a e1 6b 80 3a
       -0.002258804 6.7665824e-05 0.00052069087 0.0009797775
000330 95 cc 4f bb 0d fa 69 bb 17 d0 83 bb d1 24 a7 ba
       -0.0031707634 -0.003570202 -0.004022609 -0.0012752061
000340 12 39 20 3a a2 d3 a2 bb 7d 99 c0 bb 78 c2 32 bb
       0.000611202 -0.0049690763 -0.005877672 -0.0027276557
000350 b0 1d f6 38 f2 8b 87 3a 6b 88 9b bb f3 66 08 bc
       0.00011735724 0.001034139 -0.004746487 -0.008325326
000360 56 ab 45 bb c6 7f 13 ba b6 dd da ba 04 99 2e bb
       -0.0030161939 -0.00056266447 -0.0016698155 -0.0026641497
000370 bf 98 e1 bb 9b 37 8c bb 93 a4 37 3a 78 c1 0b bb
       -0.006884664 -0.0042790896 0.00070054195 -0.0021325033
000380 2e 25 c4 ba c0 93 75 bb 2c c6 9d 3b 7c a8 62 3c
       -0.0014964694 -0.00374721 0.0048148837 0.013834115
000390 2c cf a5 3b 58 f4 03 bc c9 1f 31 bc 11 77 b5 bb
       0.005060097 -0.008053862 -0.010810801 -0.0055378755
0003a0 d3 6c a2 3b c2 55 0d 3b 6c e9 bb bb c8 9f 67 bc
       0.0049568205 0.0021566008 -0.005734613 -0.014137216
0003b0 a9 0c 37 bc 84 25 70 b9 79 09 47 3b da aa 05 bb
       -0.011172452 -0.00022902159 0.0030370636 -0.0020396025
0003c0 bd ab 41 bc a0 6d 3c bc 4e 78 8e ba c8 14 f9 b9
       -0.011820731 -0.011500746 -0.0010869594 -0.00047508464
0003d0 c2 69 1f bb 83 73 0f bc a7 a1 26 bb 8c 4e fb 3a
       -0.0024324511 -0.0087555675 -0.0025425942 0.0019173189
0003e0 f0 c8 22 bb e6 1c f8 ba 8f 66 e3 bb 7f a9 54 bb
       -0.0024839006 -0.0018929511 -0.006939716 -0.003244966
0003f0 b3 ce 50 3a 4c b3 d1 3a 94 32 3d 3b 95 f5 66 bb
       0.0007965371 0.0015998869 0.0028869258 -0.0035241593
